0006_03_00_saved_NNmodel.pth (torch, 319443 bytes, 10 tensors)

fc1.weight f4 [256, 138]
00000000: b926 3dbd dd5c 843c 08b8 e7bb 3355 613c
00000010: 0950 12bd 4881 963d a152 1ebd 9a2e d23c
00000020: a94b 2c3d 64b3 46bc ef6a 6b3d af1c 0d3d
00000030: 3bea 613d 295b 7e3d 6eeb 0dbd f843 2b3d
00000040: a10f fcbc 4786 163d dd4d 18bd 3ed4 703d
00000050: ffb2 0b3d 5fb2 e4bc b6af 2abc 4b28 dd3c
00000060: 8c0d e23d 29cc 3e3d dec2 2a3c f4f9 763a
00000070: 2fc2 713d 381b 09bd f728 0a3d 130f 32bc
00000080: 3b77 843d 36e9 d3bc e562 ce3c 9fac 0d3d
00000090: 83a8 7c3d 664b 1f39 e80b 9f3d 560b 74bd
000000a0: 192e 30bc 51d8 adbd 37f3 633c a755 003d
000000b0: aba2 f1bc 71fd 243d 9a1f 1bbc 1b4a 8dbd
000000c0: d508 a23d 94e3 7c3d 9b8d 873d 0210 913d
000000d0: cc44 2a3d 91e9 4d3d 866f 973d 23a2 33bc
000000e0: 77f7 87bd e999 0dbd 5dfb 27bc f706 9ebb
000000f0: 0de3 323b fc09 683d 14b4 df3c 8445 6ebd
00000100: eefd 9ebc 2625 bcbc 5dad 6b3d d119 8dbc
00000110: 3c3b adbc 798a 1dbc 1a3e 83bc a0ec 60bc
00000120: 2e94 aabd 79a7 aa3d 4552 6e3d aef0 0bbd
00000130: 7e7f 4dbd 9608 943c 3040 523d e676 6ebd
00000140: 5551 ddbc 9ad7 113d 53e7 50bd c04c 1bbc
00000150: d4d2 51bd d784 be3d 3995 8b3d ff18 9cbd
00000160: 834e 33bd 5b93 033d 26e9 1d3c b2ae cd3c
00000170: 2a9f 8ebd e075 22bd cd8a 233d acd7 25bd
00000180: f633 6fbc 6a84 463d e472 443d 6ef7 753c
00000190: 6482 f03c 517a 1f3d 7016 f4ba 9e89 bebc
000001a0: 2773 8d3d 9c35 ce3d 4492 383d 29af 00bd
000001b0: 73a5 97bd ec34 a0bd 741c 853b 02db fbbc
000001c0: c22e 4abc bcc4 8abb dbee af3d 39a6 b93d
000001d0: 84d1 f8ba ebfd 3cbc e113 783d c7f8 b9bb
000001e0: 0a00 91bd 3f2a 053d d3b5 ae3d 4631 8abd
000001f0: 6669 70bc bed8 af3c f3ad 25bd c242 95bd
00000200: 7550 8d3d c081 ddbc 97a0 603d 15fd cd3c
00000210: 7b75 673c f060 68bd bef5 bebb 1ca9 813d
00000220: 9f17 3f3d 3d0e a0bc 5502 fa3c 455a a83d
00000230: d530 62bd 8d84 a03d beb2 783b 5eeb 3e3c
00000240: 25cc 803d 5e3b 43bd 1a25 913a 4e6c c53d
00000250: 16ad 1c3d d8ed 00bd b4e5 97bc 5150 963d
00000260: 64bb 033d 994e 853d 8987 60bd ff8d ed3c
00000270: 3525 ba3c c76a 8a3c 4261 b13d e34c 4f3d
00000280: 25cc a13d 7e19 193d 7533 733d 4ec3 2bbc
00000290: 0dde 99bd 9944 93bd d442 12bd a2e5 f2bc
000002a0: 6a49 263d 9a2a 493d 4b81 d6bc 97cd 84bd
000002b0: a5d3 c63d 01b9 8c3d b1b3 4d3d a814 cc3d
000002c0: 1ca3 39bd 3090 46bd 1018 4cbd f00b 87bb
000002d0: f362 9cbd e910 973d 4083 0f3b 6ca3 2d3d
000002e0: 687b 3fbd e8aa 8bbb d870 373c bd91 9bbc
000002f0: 9821 cc3d ef4c 1fbd f184 0a3d 2b94 6cbd
00000300: c014 25bc a801 b9bc 29d6 483d 12a2 833d
00000310: dbd8 b73c a113 61ba 845b 85bc a2a4 903d
00000320: 94c6 a4bc 4f34 873d 906c 03bd 17a1 803d
00000330: e57d b63d 8649 973d 4934 883d f6c6 013d
00000340: 4471 2bbd c029 853a 981e f03c 7fe7 82bc
00000350: 0239 c43c fac8 5c3d 7d87 a1bd 88f8 a4bd
00000360: 1a97 3bbd 1022 2a3c 5c42 81bc f045 963c
00000370: a8d4 a5bc 7441 64bd 4062 bb3c 2b46 873d
00000380: 8a4e 67bd 2975 9f3d 80a0 ab3c cbf9 ac3d
00000390: a9cb 9fbd b8e0 a6bd e895 ec3c 3da3 a2bd
000003a0: 6bde 8ebd 6ff6 6d3d 6722 393d 1cdc 9ebd
000003b0: b18c 803d d898 87bc 6a28 923d 549e 4cbd
000003c0: a8c5 a5bd 4a24 67bd a77b 22bc 6e1d aebd
000003d0: 3baf 05bb 25a0 fbbc 384f a2bc 59e9 e33b
000003e0: f08d 9c3b 9f88 aabd ba84 2b3d d038 2fbd
000003f0: 86a9 743d 7f30 bf3d 548f e8bc 4269 f33c
-0.046179507 0.016157562 -0.007071499 0.013753223 -0.03572086 0.07348877 -0.03865302 0.025656987
0.042064343 -0.012127731 0.057475027 0.034451183 0.05515502 0.062098656 -0.03464835 0.041812867
-0.030769171 0.03674915 -0.03718363 0.05879616 0.03410625 -0.027917085 -0.010417869 0.026996752
0.1103774 0.04658142 0.0104224365 0.0009421401 0.05902308 -0.033473223 0.033730473 -0.010867852
0.06468054 -0.02586804 0.025193641 0.034588452 0.061684143 0.0001519151 0.07765943 -0.059581123
-0.010753178 -0.08488525 0.013912967 0.031331684 -0.029496511 0.040280763 -0.009467984 -0.068989
0.07911841 0.061740473 0.06618806 0.070831314 0.041569516 0.050271574 0.07394318 -0.010963949
-0.06638997 -0.03457061 -0.010252801 -0.0048226076 0.0027295977 0.056650147 0.027307548 -0.058171764
-0.019408192 -0.022966933 0.05753838 -0.017224224 -0.02114641 -0.009615534 -0.016020823 -0.013728291
-0.08329044 0.08332724 0.058183927 -0.034165077 -0.050170414 0.0180705 0.051330745 -0.05821886
-0.027016321 0.035606004 -0.051001858 -0.009478748 -0.051226452 0.09302681 0.06815571 -0.07621955
-0.043776046 0.03212295 0.009638106 0.025107715 -0.06963952 -0.039663196 0.039927293 -0.040488884
-0.014599791 0.048466124 0.04796113 0.015012605 0.02935905 0.03893501 -0.001862241 -0.02325898
0.06906729 0.10068819 0.045061365 -0.031417046 -0.07404604 -0.07822594 0.00406223 -0.03074408
-0.0123402495 -0.0042348783 0.0859048 0.090649076 -0.0018983339 -0.011535148 0.060565833 -0.0056754085
-0.070800856 0.032510992 0.08530774 -0.067476794 -0.014673566 0.021465655 -0.040449094 -0.07288124
0.069001116 -0.027039409 0.05484065 0.025145093 0.014127131 -0.05673307 -0.0058276346 0.06331083
0.046653386 -0.01953804 0.03051869 0.082203425 -0.05522235 0.07837782 0.0037948336 0.011652796
0.062889375 -0.04766404 0.0011073679 0.09639798 0.038251005 -0.031476825 -0.018542148 0.07339538
0.03216113 0.06509132 -0.054816756 0.028998373 0.02272282 0.016896619 0.086611286 0.050610434
0.079002656 0.037377827 0.059375245 -0.010483576 -0.07513056 -0.07190818 -0.035708264 -0.029650513
0.040597357 0.049112894 -0.026184699 -0.06484526 0.09708337 0.06871224 0.050220195 0.09964877
-0.04532157 -0.04847735 -0.049827635 -0.004121296 -0.076360606 0.07376272 0.00218983 0.04239218
-0.04674855 -0.004262317 0.011196338 -0.018990392 0.09967345 -0.03889173 0.03381819 -0.05775849
-0.010075748 -0.022583798 0.049032364 0.06427397 0.022442272 -0.0008585994 -0.01627899 0.07062651
-0.02011422 0.06601774 -0.032085955 0.062807254 0.08910731 0.0738707 0.066505976 0.031683885
-0.041856065 0.0010159537 0.029311463 -0.015979527 0.023952965 0.053902604 -0.078871705 -0.08055216
-0.0457984 0.010384098 -0.015778713 0.018343896 -0.020243004 -0.055726483 0.022873998 0.0660518
-0.056471385 0.077860184 0.020950556 0.08446082 -0.07802517 -0.081483305 0.028880075 -0.079412915
-0.069760166 0.058096346 0.045198824 -0.07756826 0.06276835 -0.016552374 0.071366146 -0.04995568
-0.080943406 -0.056431092 -0.009917176 -0.08501707 -0.0020398635 -0.030716011 -0.019813165 0.0069553074
0.0047776625 -0.0832684 0.041874625 -0.04277879 0.059731983 0.09335422 -0.028388657 0.029713277

fc1.bias f4 [256]
00000000: ecd7 853d f8f0 28bd 1852 e43d 2f7b 3ebb
00000010: 7967 d13d 86ac 5b3d e84c ca3d 3f0e a53d
00000020: 4068 9a3d 5d0f 103d 8be6 e23d 71c0 3dbc
00000030: ab6e 1abd 9b4d c03d 7259 f638 85e5 8c3d
00000040: 2af0 993c 99a3 383d 1450 a73d 17ac 613c
00000050: 6eb4 b43d 4129 753d 6456 003c 9e42 aa3c
00000060: 20c6 ac3d 02eb b43d 52f9 283d 65f8 d33d
00000070: b97d c1ba fba2 d63b 2bfb f23d eeb7 e03d
00000080: 8c51 7fba 5104 7e3d c17f 8e3c 06da da3d
00000090: 67ff ce3d 2c90 bd3d 4052 2f3c 1b64 2f3b
000000a0: 4827 273c 5c39 243d cfa2 49bd 1683 8bbd
000000b0: e91e 593c fb93 a13d 95b7 c83d bc17 e93d
000000c0: e1d8 6a3a 339e cebc 52b8 5d3d 3485 ef3d
000000d0: e511 f0bc 3943 ab3d d6f5 da3d 9934 42bd
000000e0: eff7 df3d e84b d13d bef8 dd3d b881 163d
000000f0: 670f ce3c db97 8cbd 9553 d0bb c49f 9dbc
00000100: 5f7a cc3d 0af4 373d 1deb 243c 0adb 583d
00000110: 2ff6 753d f927 cdbc 21d9 523b cd28 e33d
00000120: 423d 7e3d ceb3 503d 4d1e 83bd 3265 a5bc
00000130: 3ed6 52bd 6950 3cbc 7874 d93d 1a92 da3d
00000140: 3381 84bc f4d0 39bd 45a1 933c fbb5 2d3d
00000150: df4b b93d 70d0 0dbb 1265 d93a 927b c73d
00000160: 00c3 c73c 9b3b 66bd 309b dd3b c49f 35bd
00000170: 7061 823d 6a82 923d 849e cf3d fb32 8bbd
00000180: 2a67 da3d 4507 9dbb 3991 513d c7a0 5c3d
00000190: d623 b53c dbac b93d 54e8 3b3d c791 d5bc
000001a0: 35c8 ba3d 231a 4dbc b6ad e53c 02b1 aebc
000001b0: 6811 27bd c4a5 843a 814a e6bc cc68 9f3d
000001c0: 29c1 cd3d 5b22 413d 8d80 cb3d 975d 09bd
000001d0: ddf0 c13d 1cbc c3bc dd41 01bd de0f 9d3d
000001e0: a86d ab3d 228f b93c ca83 c43d 226e bc3d
000001f0: 2555 753d 845c cf3d ce36 ee3c ea28 0dbc
00000200: 3a0e 9a3c e607 5f3c b22d fa3c d821 01bc
00000210: 7162 c03d eeb5 3e3d d48b bd3d 35a0 babc
00000220: 7487 183d 43b4 e13d b46b a83d 883b d43d
00000230: f0a5 e1bb f472 c23d 7992 99bd 081a 81bd
00000240: 9b3d dbbc d2b1 29bd d942 b43d 75fb b03c
00000250: 978f 303d b4b7 d53d 4221 ec3d c002 833d
00000260: af68 093d 1e30 253d f55e 763d 9b30 36bc
00000270: e693 273d 491c ab3d c4fb c23c 4283 a9bd
00000280: 8b6a 67bd 9817 d53d e81a 0dbc 60e1 b3bd
00000290: 5208 c53d 7bf4 db3d bad3 32bd 3dc2 e33d
000002a0: cfcc bc3c 82f7 35bc 99ac 73bd a7c6 b23d
000002b0: 23c2 103d 4f93 9e3d ae2d 25bc aeaa d93b
000002c0: eaba d73d 36bd c73d b4e3 7abd d9e4 b63d
000002d0: 12c0 68bd 8307 a33d a095 babc 5f74 783d
000002e0: 11c2 c0ba 1218 acbd 203b d23d 5ded febc
000002f0: 8da4 a8bd fbc1 c23d 9f36 e0bc eb97 043d
00000300: 5843 f23d 98f4 ad3d 1e27 563d e59c 933d
00000310: d7fb d63c 342e 35bc 0c3a febc 1b82 c73c
00000320: 2181 ad3d 8057 113d 7d95 aebc 3ecc b83c
00000330: 26a0 8dbc 5350 12bd cdbb 473c 17e6 303d
00000340: 24b0 683d 656b f93d 2221 95bc 64d3 b53d
00000350: b6bd 3abd 07fd 3b3d faf9 8fbc a52d b43d
00000360: a0c9 9d3d 2ff6 c43d 1b9e c83d 40d7 973d
00000370: d29c f73c 3521 84bd d349 c1bb b636 443d
00000380: e630 c13d 25c2 cd3d d147 cbbb 8e65 9f3d
00000390: c14c 983c 818d eb3c c30f 8d3d d262 c73c
000003a0: 23dd e4bb d396 cf3a 371f 923d 564a 783d
000003b0: a357 4bbd 4eb2 283b 4183 cd3d e422 97bd
000003c0: c3e3 f13d ad9b 8a3b 5f01 9f3d 03c2 b93c
000003d0: 6ccb 63bd d60c cfbc 56a5 dfba 6295 e53d
000003e0: 0b06 973d 37d2 5c3d 3aa3 6f3d ea78 4f3d
000003f0: 1cf1 c83d cb04 f9bc 63ce 973d 2766 f23d
0.065353245 -0.04124543 0.11148471 -0.0029065122 0.10224814 0.053631328 0.0987795 0.08059358
0.07539415 0.0351709 0.11079129 -0.011581526 -0.037703197 0.09389802 0.000117468546 0.06879715
0.018791277 0.045077894 0.081695706 0.01377394 0.08823477 0.059853796 0.007833097 0.020783719
0.08436227 0.08833887 0.041253395 0.10350112 -0.00147622 0.0065501905 0.11864313 0.10972582
-0.00097396295 0.062015835 0.017394902 0.10686116 0.10107308 0.09256014 0.010700762 0.0026762548
0.0102022365 0.040093765 -0.049227532 -0.06812112 0.013251998 0.07889553 0.098006405 0.1138148
0.0008958709 -0.02522192 0.05413086 0.11695328 -0.029305408 0.08362431 0.10691421 -0.047413442
0.109359615 0.10219556 0.108384594 0.036744803 0.025153829 -0.06864902 -0.00635762 -0.019241221
0.09984278 0.04491047 0.010065821 0.052943267 0.060049232 -0.025043475 0.0032172876 0.110917665
0.06207014 0.050952725 -0.06402264 -0.020189855 -0.05147385 -0.011493781 0.10617918 0.10672398
-0.016174888 -0.04536529 0.018021235 0.04240988 0.090476744 -0.002163913 0.0016585907 0.09740366
0.024384975 -0.056209188 0.0067628846 -0.044341817 0.06366241 0.07153781 0.10137656 -0.06796833
0.10664208 -0.0047921264 0.051163886 0.053864267 0.022111814 0.09066173 0.045875862 -0.026070489
0.09120218 -0.0125184385 0.028036933 -0.021324638 -0.040788084 0.0010120203 -0.028111698 0.0778366
0.10046608 0.047151905 0.099366285 -0.03353652 0.09469769 -0.023893408 -0.031556953 0.07669042
0.08370525 0.022651259 0.09595449 0.09200694 0.059895653 0.10125068 0.029078867 -0.008615712
0.018805612 0.013612723 0.030539367 -0.007881604 0.09393776 0.04656022 0.09255186 -0.02278147
0.037238553 0.1102071 0.08223668 0.10362917 -0.0068862364 0.09494582 -0.074986406 -0.06303793
-0.026762774 -0.04142935 0.08801813 0.021604279 0.043105688 0.10435429 0.11529781 0.06397009
0.0335471 0.04032909 0.06014915 -0.011119987 0.04091253 0.08355004 0.023801692 -0.082769886
-0.05649809 0.10404891 -0.008612372 -0.08783221 0.096207276 0.1073999 -0.04365895 0.111210324
0.02304688 -0.011106374 -0.059490774 0.08729296 0.035341393 0.07742941 -0.010081692 0.006642661
0.10533698 0.09752886 -0.06125231 0.08930368 -0.056823798 0.07960417 -0.022776425 0.060657855
-0.0014706274 -0.084030285 0.102651834 -0.031119043 -0.082345106 0.09509655 -0.027369795 0.032371443
0.11829251 0.08493918 0.0522834 0.0720766 0.026243133 -0.011058379 -0.031033538 0.024354031
0.08471895 0.035483837 -0.021311516 0.022558328 -0.017288279 -0.035721134 0.012190771 0.04318818
0.056808606 0.12178687 -0.018204276 0.0887821 -0.04559108 0.045895603 -0.017575253 0.087977685
0.077044725 0.09617268 0.09795781 0.074141026 0.030226145 -0.06451646 -0.005898693 0.04790374
0.09433155 0.10046796 -0.0062036295 0.07783042 0.018591287 0.028753998 0.06887772 0.024339113
-0.0069843694 0.0015837796 0.0713486 0.060617767 -0.049644124 0.0025741044 0.100348 -0.07379702
0.1181102 0.004229984 0.077639334 0.02267552 -0.05561392 -0.025274675 -0.0017062824 0.11210133
0.073741995 0.053911414 0.058505274 0.050652422 0.09811613 -0.030397793 0.07412412 0.1183589

fc2.weight f4 [128, 256]
00000000: 424c 70bc 0ed7 ac3c 919e 473c 8584 a2bc
00000010: 790c 513d 4a81 3e3d 23a5 7a3d e384 b23c
00000020: fcda a5bc eab1 b6ba 08c2 963d 8d6a 4abc
00000030: f730 f5bc 4812 943d 886b 393d 7f4d 6a3d
00000040: 3f82 543d 5da7 0c3d 354a 223d ec88 4a3d
00000050: c817 8e3c bbf3 8d3d a021 233d 770e ee3c
00000060: 1cea cfbc b263 14bd d777 b33c 4538 663d
00000070: ff2f 933d c6a8 723d 3ced 87bb 48aa 9e3c
00000080: ad5f d43b 888f 923d d535 833d 1299 51bc
00000090: 4060 d5bc 091c 8d3d 5e74 153d 6a10 f7bc
000000a0: ede8 0bbc 2616 883d 3053 943d fdfa 9cbc
000000b0: c310 18bd 5018 093c 9021 823d fa52 413c
000000c0: d4eb 80bc 1f91 7abc 1a84 0b3c ecdc 0b3a
000000d0: 845b 25bc dde0 c93c 2eab f03c 27a8 acbb
000000e0: 455e 743d 9f0c f03a 609c bfbb b84d 28bd
000000f0: 1030 04bd 98f8 ba3c 2339 3ebc 8a5e e3bc
00000100: 250f 933d ea28 9b3d 1ac0 903d b9ea 84bc
00000110: 9d36 b3bc 29db a2bc ef5c 9b3b 0d53 8f3d
00000120: 8776 933b f6d4 92bc 5ab6 3b3d a94e 1cbd
00000130: 4bba 8f3b c41b b1bc 24ac ebbc 8cea a03d
00000140: 6997 a13d 0a33 a53d 6fc3 933d 595d 8a3d
00000150: cb3f 8c3b d4b5 4c3d 8323 17bc 8536 2f3d
00000160: 172b 963d 7fb6 16bd 4ca4 2b3d c00e 2d3c
00000170: 973e 8a3d c4d2 753d 99ed f3bc 4c84 e4bc
00000180: 21c8 843d 5aee 4d3d 39b9 553d e514 80bc
00000190: ad05 b2bc 0f05 21bd 3d69 2dbc 3bf2 853d
000001a0: 3e0f 943d 65c0 60bc 3c63 a4ba 88fc 68bc
000001b0: 1fdc 073b d202 85bb 0880 04bd e5b6 85bc
000001c0: 5a65 1a3d 7af1 e53c b6f5 01bd ceb9 3c3d
000001d0: a23f 433d 3994 c5bb 36f6 46bb eda1 20bc
000001e0: 6840 933d 3bfd 18bd 067b aa3b 86ef 3b3d
000001f0: 55c9 1e3c 1ae9 65bc 661b 693d 7d0e 863d
00000200: ea7f 9e3d f2fd 0e3d 06de 07bd 364b c7bc
00000210: e204 8f3d 1f5d e03b 031e f33c 076b 043d
00000220: fadd 1abc 7867 473d 6fdf 44bb b6a1 6b3d
00000230: 4db3 e33c ed7a 3b3b 4704 12bd a795 49bd
00000240: 37da 033c 2b3e 8d3d 9efb f83c a385 963d
00000250: eb5b 2ebb 2ee0 f5bb 6022 36bb c864 6d3c
00000260: 8292 3d3d 3a7d 013d f779 c43c f32b 8e3d
00000270: 6ca3 663c 0a9b acbc eb50 16bd ec49 bbbc
00000280: dbde 90bc 6a06 dbbc 57d6 623d 3e13 31bd
00000290: 4cfb 9d3d d220 9a3b a6e2 833d c563 473b
000002a0: 6a32 a03d 95c5 3cbc feff abbc d46e 06bd
000002b0: 9d04 903d 295b 353c 4249 efbc 8542 553d
000002c0: 9d3d 953d fa8c 3c3d e0b8 0d3b 9bbf 01bd
000002d0: ee11 1c3b ad0c 033d 32fc 4fbb 83bd bb3c
000002e0: eb39 943d c9bd 97bc be8a 06bd 2ba4 263c
000002f0: 5631 053d 0c73 cf3b f6f4 813b 2d81 dd3b
00000300: 6123 9f3d 0510 eabc 12f1 6f3d 698b 813b
00000310: 17f5 1e3d a0cb 9a3c f02c bf3c c57d e63b
00000320: d19e 6b3d 5703 edbc 6513 08bd c593 993d
00000330: c40d b53b a5a4 993a c449 f23c 08d4 2c3d
00000340: c4a0 20bc 7095 12bd 6f03 813c 0888 d63c
00000350: 6cee 633d 34da 9d3c 6395 253c 71d6 873d
00000360: bb7f ce3b fc31 723d afc0 f13a 7982 8e3d
00000370: 060e 7f3b 3aa1 6ebd 7412 d6bc 5cc5 2a3d
00000380: 2890 853d ec0c ba3c 406a 01bd bb6c 963d
00000390: df91 023d 2486 8cbc 38bb fd3c 73a8 9c3d
000003a0: bf1c 30bc f916 513d 1cea e9bc db60 22bb
000003b0: f60f 623d eab8 ecbc de2b 793d 6c02 5d3d
000003c0: 1b27 6c3d 99fb 7d3d e0af 4a3c 23aa 13bd
000003d0: c184 183d 703b 9d3d e54a 4e3d 724b 5f3d
000003e0: 36af 18bc 0bc1 ec3c 6c71 983d eb11 503c
000003f0: 2529 e5bc 75d2 873d 9b33 35bb 0cab 973d
-0.014666619 0.02109864 0.012183801 -0.01983858 0.051037285 0.04651002 0.061192643 0.021791881
-0.020246021 -0.001393852 0.07361227 -0.012354505 -0.029930575 0.07230049 0.045268565 0.057202812
0.051882025 0.034339298 0.03962155 0.049446985 0.017345324 0.069312535 0.03982699 0.029059632
-0.025380187 -0.03622789 0.02190773 0.056206007 0.07186889 0.059242986 -0.0041481536 0.019368306
0.006481132 0.07156283 0.06406752 -0.012792842 -0.026046872 0.06890113 0.03648793 -0.030159194
-0.008539421 0.066448495 0.07242429 -0.01916265 -0.03712536 0.008367613 0.06354058 0.011799568
-0.015737452 -0.015293389 0.008515382 0.0005335349 -0.01009262 0.024643356 0.0293785 -0.0052690688
0.059660215 0.0018314308 -0.005847499 -0.041089743 -0.0322724 0.022823617 -0.011610302 -0.02775504
0.07180623 0.07576163 0.070678905 -0.016225206 -0.021876628 -0.019879894 0.004741303 0.069982626
0.0045002135 -0.017923813 0.0458282 -0.038160954 0.0043862215 -0.021619685 -0.028768606 0.07857236
0.07890207 0.080663756 0.072150104 0.06756086 0.0042800657 0.049978092 -0.009224775 0.042776603
0.073324375 -0.036795136 0.041904733 0.010562599 0.06750219 0.060015455 -0.029776381 -0.027895115
0.06483484 0.050276138 0.052178595 -0.015634963 -0.021731222 -0.039311465 -0.010584173 0.065403424
0.0722947 -0.013717745 -0.0012541781 -0.014220364 0.0020730568 -0.004059174 -0.032348663 -0.016322562
0.037694313 0.028069247 -0.03172847 0.046075635 0.047668107 -0.0060296324 -0.0030359155 -0.009804231
0.07190019 -0.037350874 0.005202654 0.045882724 0.009691556 -0.0140326265 0.056910895 0.06545732
0.077392414 0.03491015 -0.033170722 -0.024327856 0.06983353 0.0068470384 0.029677397 0.03232863
-0.009452337 0.04868266 -0.0030040403 0.057527266 0.027795458 0.0028607205 -0.03564861 -0.049214985
0.008047632 0.06896623 0.030393418 0.07349708 -0.002660508 -0.007503531 -0.0027791485 0.01448936
0.0462823 0.031613566 0.023983939 0.069419764 0.014077049 -0.021070022 -0.036698263 -0.022862397
-0.01768439 -0.026736457 0.05538019 -0.04323124 0.07713947 0.0047036195 0.06439714 0.0030424458
0.07822116 -0.011521717 -0.02099609 -0.032820538 0.0703213 0.011069098 -0.029209737 0.05206539
0.072871424 0.046032883 0.0021625087 -0.03167687 0.0023814398 0.03199451 -0.0031736013 0.022917515
0.072376095 -0.018523114 -0.03284716 0.010170977 0.032517754 0.0063308533 0.003965969 0.0067597837
0.0777042 -0.028572092 0.058579512 0.0039533866 0.038807955 0.018895924 0.023336858 0.007034036
0.057524506 -0.028932257 -0.03322162 0.07498888 0.0055253226 0.0011722042 0.02957619 0.042194396
-0.0098039545 -0.035787046 0.015748708 0.026187912 0.0556473 0.019269086 0.010106417 0.06632698
0.0063018478 0.0591297 0.0018444265 0.069584794 0.003891827 -0.058259226 -0.026131846 0.041692123
0.06521636 0.02271124 -0.03159547 0.073449574 0.031877395 -0.017153807 0.030973062 0.07649317
-0.010749041 0.0510473 -0.028554015 -0.0024776969 0.055191003 -0.028896768 0.06083285 0.053957388
0.05765448 0.06200752 0.012371033 -0.036050927 0.03723598 0.076773524 0.050364394 0.05451531
-0.009319117 0.028900644 0.074435085 0.0126995845 -0.02797372 0.06631938 -0.0027649167 0.074056715

fc2.bias f4 [128]
00000000: 9d7f b9ba 6fc3 2a3d bba4 8d3c 8632 dc3c
00000010: 31c4 453d b6d4 3ebc 8f1d 983b 0375 a83c
00000020: 3686 913d 0325 4e3d 30a1 253d 06ea e43c
00000030: bdc9 df3c 7b84 bcb9 aa52 1d3c 5c09 3dbc
00000040: 329a 0e3d 0dc6 34b9 615f 3c3d 567d 2abd
00000050: 52b9 8f3d cdf9 f938 b2bb d63c 0bd5 773c
00000060: 7fdd b93c 6e6f 823c bc6b 2ebb b39d 17bd
00000070: ca8f 583a 92d3 3b3d 57f3 ae3c 5829 b63d
00000080: b6d4 c13b 0090 813d 38be 853d f5f5 3a3d
00000090: 2318 923d 6ad9 183d 45c6 cb3c 210d f4bc
000000a0: 2fb7 9bbc 106a 823d c6ae 5d3d 4fdd 6a3c
000000b0: 502b 943d 4dfb 8b3c d765 0a3d 55f5 933d
000000c0: 7b0a 84bd 6d5e 0dbc 0e78 12bd e2c4 1e3b
000000d0: 8e05 853d 59df a3bb add9 8e3d 1bef 473d
000000e0: fa2c e33c 8ba2 2abd 5861 083d 6842 07bd
000000f0: bed3 ef3c 24db a8bc e8e3 a93d 8250 78bc
00000100: 4bab da3c 880f 54bd b5c0 a13d b14f 2a3d
00000110: 30af b8bc 0bc9 2ebc c910 5e3d e972 863d
00000120: ba93 9fbc 3660 13bc 7775 b23d 7ae7 edbb
00000130: 1786 6d3d d11b 4d3c ff82 bc3c 6cf6 01bd
00000140: b5ee 4b3d fd89 1c3d e237 1e3d f960 a03c
00000150: b41f 32bc 63a1 70bb 7686 bbbc 5d86 a23c
00000160: 4e68 8fbc 08eb a43d 61ea 973d 9529 8d3b
00000170: 4165 073d cdb1 6d3c 131e 18bb df82 2cbc
00000180: 0e60 b43d fa14 2e3c 3d46 d1bc b459 dabb
00000190: c5a2 34bc e302 cbbc f2e6 813d 17f0 483c
000001a0: de91 3bbc 0950 043d cb35 00bc 2035 18bd
000001b0: e0de af3d a894 f4bc cb24 cfbc a847 373d
000001c0: 6c6b b43d c5df 1fbd 0643 8d3d 1a19 3cbc
000001d0: a6b2 69bb 4572 ab3d 3776 ee3c 2012 8fbb
000001e0: 35a0 783d 0402 ccbc d354 6fbc 2ade a43c
000001f0: 5457 da3c ba09 d1bc 1445 a53c 5ec4 483d
-0.0014152412 0.041690286 0.017290464 0.02687956 0.048282806 -0.011647394 0.0046421955 0.020563608
0.07105677 0.050328266 0.040436924 0.027943622 0.027317876 -0.0003595686 0.009602228 -0.011537876
0.03481502 -0.00017239917 0.045989398 -0.041623436 0.07017769 0.00011919774 0.026212547 0.015126477
0.022688625 0.015922274 -0.0026614508 -0.037015628 0.00082611723 0.045856066 0.021356268 0.088946044
0.0059152497 0.06326294 0.06530422 0.04564472 0.0713351 0.037316717 0.024874816 -0.029791417
-0.019008247 0.06367886 0.054121755 0.014334991 0.07234824 0.017087603 0.03378853 0.07224528
-0.064473115 -0.00862847 -0.035759024 0.0024226238 0.064952 -0.0050009903 0.06975112 0.048812013
0.027731407 -0.04165892 0.03329596 -0.033022314 0.029275771 -0.020612307 0.08295423 -0.015155913
0.026693007 -0.051772624 0.07898084 0.041579906 -0.022544473 -0.01066805 0.054215226 0.06564886
-0.019479621 -0.008995106 0.08713811 -0.00726026 0.057989206 0.012518839 0.023011683 -0.031729147
0.049788196 0.038217533 0.038627513 0.01957749 -0.010871816 -0.0036717288 -0.022891264 0.01983946
-0.017505791 0.08052641 0.07417751 0.0043079355 0.033055548 0.014507723 -0.0023211285 -0.010529249
0.088073835 0.010625118 -0.025546188 -0.0066635255 -0.011025135 -0.02478165 0.063428774 0.012264273
-0.011448352 0.03230289 -0.007825325 -0.03716004 0.08587432 -0.029856041 -0.025286099 0.04474607
0.088095516 -0.039031763 0.06897549 -0.011480594 -0.0035659461 0.083714046 0.029109104 -0.0043661743
0.06069966 -0.024903305 -0.014607626 0.020125467 0.02665297 -0.025517333 0.02017454 0.049015395

fc3.weight f4 [64, 128]
00000000: ae11 ea3c 98b0 06bd 1ef6 913d 1f43 75bc
00000010: 9252 ec3d 87b7 89bc a2fb c7bc 47f7 173d
00000020: eec8 933d a7fc 143c 5e5f bc3c d3d5 d33c
00000030: 0879 e63d 2bd3 e63d 70cf d93d 3b1e ce3d
00000040: f343 4a3d d16c e83d 4661 183e fe1e 41bd
00000050: ddb4 8abc ea3c 0f3c fdf5 813d a42d 833c
00000060: f29f 333d dd6f 033d 850e e53d 50c1 2e3d
00000070: 1cbc 00bd 4e46 dd3b 95af 873d 2476 c83d
00000080: 2018 98bd 2817 4cbd 993f df3d 8af3 b63d
00000090: 0831 533d 0fba d2bc 4e9b a73b 697d 4c3d
000000a0: bd99 b5bc 732d f4bc da03 7a3d 73fc 0d3c
000000b0: 7e1f ee3d ac50 c23c bdb4 9fbc 3154 86ba
000000c0: 2d59 353d 45ec 8abd 8830 1ebd 4b24 363d
000000d0: 9f55 03bb 5a2d 98bc 029a 103c 2148 57bd
000000e0: a569 e83d 4f59 83bd 5b95 073c 75a8 a53d
000000f0: 9b17 133b 63da 16bc 2092 d43d 97ab da3d
00000100: c14f 1b3d df04 66bd d0fe e53d 8ba7 213d
00000110: 3b66 01bd 4c8d ba3d f43f 60bd db09 ea3d
00000120: 1889 873d a590 963c 7919 313c b64f 5c3d
00000130: 3573 943d 1259 113d 8f3b 88bd 6538 1abd
00000140: 49d7 213c d45f 953d afc6 dc3c f519 0b3d
00000150: e073 f43d 6e96 b03d b427 003d 12ec 4ebd
00000160: 7166 3e3d 7c17 15bd fd4e d13d a70d 2fbc
00000170: 7f32 bd3d a68f 21bd 8014 643c b907 99bc
00000180: a0c0 11bd b1b3 39bc 6c07 a0bd 6ff6 f7bc
00000190: 4c83 6d3d 6e3b 583d 1a61 f23c a971 923d
000001a0: c817 5d3d 6565 353d 2cd1 b63b e8e2 d23d
000001b0: 20df 7d3d a322 b53d 634e 8cbc 6c03 993d
000001c0: 7f75 5b3d ae6d ad3c 9e17 25bd d521 803d
000001d0: 260e 75bc 992e 1dbd 5be4 773c 9888 63bd
000001e0: 79c1 8a3a b428 2b39 ff65 923d 2cb9 a6bc
000001f0: 4c81 bf3d 2f20 72bc d728 ef3c bf2b 863d
00000200: 3dab 6c3c e576 f63b b332 c3bd 3e67 853c
00000210: ff2b 06bd dc55 8bbd 47c8 9e3c 8486 1e3d
00000220: 2efd 2a3d b3d2 47bd 044c 8c3d 109d 883d
00000230: 4c30 9fbc c68a 5b3c e7ae fd3c 1fd4 9bbd
00000240: d50a a739 f392 8a3d fa48 e0bc a5c9 793d
00000250: 2f3e 5ebd 089b 873d 23c4 ccbc 32f8 d3bd
00000260: 0e8e e2bb c684 87bd 523b a6bd 4858 623c
00000270: 4cbc 38bd 5775 f53c d551 043d 14bc c23c
00000280: a8cf abb8 489c 5f3d 3135 8a3d d435 7f3d
00000290: bd35 973c bcd0 713d f2c5 e4bc ba86 4dbd
000002a0: 1cab 5c3d b3ca 5dbd baa7 92bd 2de2 7e3d
000002b0: 941b e43c 8be7 c23c 5030 98bc 4977 dfbc
000002c0: 1a71 373d 2374 11bc e420 acbd a6a4 933d
000002d0: 5920 c13c 7cdf 91bd e1de 94bd 0810 5b3d
000002e0: 970a 9e3c 169f b4bd 3833 91bb 1986 0dbb
000002f0: 3667 323d 23d2 7cbd 9a21 8ebd cb7c 63bd
00000300: b1a2 cabd 0970 85bd 12ed 9f3c 61f9 1dbd
00000310: 6ecf 863d 8d0a 6cba fa66 4f3d 8731 cebd
00000320: 2b12 643d e5dc 073d 29aa 60bb 1c3e 4b3d
00000330: bf39 b63c 3388 713d e2d1 d0bc 5c08 28bd
00000340: 25d4 943c 35e4 873d c4b4 213d 7cf4 1dbd
00000350: 2105 fe3c 3410 7fbd d439 6cbd cc2a 3cbd
00000360: ee73 e6bc d464 a43c 363f 6a3d 98d0 2cbd
00000370: 8230 603d 822f 5dbd d6b5 d1bd 30f6 7d3b
00000380: f313 71bd d313 2c3c e62a ec3b 0a72 d6bd
00000390: aa18 10ba 8a30 483d 2f58 30bd da00 d6bc
000003a0: 72b0 703d bd33 d3bd cacf a6bc 4d0f 5d3d
000003b0: 4d97 c6ba 2882 60bd 05dc 023d 8ba4 1f3d
000003c0: e4cb b5bd e90d 76bd 20d7 b23c 2bd6 f23c
000003d0: ff04 0c3d b732 c8bd 1d84 c93c a7f4 a8bd
000003e0: a0af 263c 823b 7abc bd72 27bc de82 8ebc
000003f0: 695f 2c3c a53f 11bd aa25 c33c c97c 8a39
0.028572883 -0.032883257 0.07127021 -0.014969616 0.115391865 -0.016811145 -0.02441198 0.037101056
0.07216059 0.00909344 0.022994693 0.025858795 0.11253554 0.11270746 0.10635269 0.1006436
0.049381208 0.1134888 0.14880857 -0.047148697 -0.016931945 0.00874255 0.06345747 0.016012974
0.043853708 0.032089103 0.1118441 0.042664826 -0.031429395 0.0067527657 0.066252865 0.097881585
-0.074264765 -0.04982677 0.10900802 0.0893317 0.05156043 -0.025723485 0.0051149493 0.049924288
-0.022168035 -0.029806828 0.06103883 0.008666146 0.116271004 0.023720108 -0.019495362 -0.001024848
0.044274498 -0.06783346 -0.0386205 0.044468205 -0.0020040048 -0.018576313 0.008825781 -0.05255902
0.11348275 -0.06413519 0.008275355 0.08088771 0.002244449 -0.009207341 0.10379434 0.106772594
0.037917856 -0.05615699 0.11230242 0.039466422 -0.031591635 0.091089815 -0.05474849 0.11427661
0.066179454 0.018379519 0.010809296 0.053786956 0.072485365 0.035485335 -0.06651985 -0.03765144
0.009877988 0.072936684 0.026950208 0.0339603 0.11936164 0.08622442 0.031287864 -0.050518103
0.046484414 -0.03639935 0.10220144 -0.010684407 0.09238147 -0.039443634 0.013920903 -0.01868044
-0.035584092 -0.011334346 -0.078139156 -0.030268876 0.057986543 0.05279105 0.029587317 0.07150585
0.053977758 0.04428615 0.0055791344 0.10297185 0.061980367 0.08844497 -0.017127221 0.07471356
0.05357885 0.021170463 -0.040305726 0.06256453 -0.0149569865 -0.038374517 0.015130128 -0.055550188
0.0010586224 0.00016322994 0.071483605 -0.020351969 0.09350833 -0.014778181 0.029194279 0.06551313
0.014445123 0.0075214976 -0.095311545 0.016284581 -0.0327568 -0.06803486 0.019382609 0.038702503
0.041745357 -0.048784923 0.06850436 0.06670582 -0.01943221 0.013399785 0.030967189 -0.07608818
0.00031860793 0.067663096 -0.027378548 0.06098332 -0.05425852 0.06621367 -0.024995869 -0.10350074
-0.006913907 -0.066171214 -0.08116783 0.013814993 -0.04510145 0.029963179 0.032304604 0.023771323
-8.1925944e-05 0.0545924 0.06748427 0.062307194 0.018458242 0.059036955 -0.027926419 -0.050177313
0.05387412 -0.054148387 -0.071608976 0.062227417 0.027845182 0.023792049 -0.018577725 -0.02727856
0.044785596 -0.008877787 -0.08404711 0.072091386 0.023574995 -0.071227044 -0.07269073 0.053482085
0.019292159 -0.08819406 -0.0044311546 -0.002159482 0.04355546 -0.06172384 -0.06940003 -0.055538934
-0.09894312 -0.0651551 0.019522224 -0.038567904 0.06582533 -0.0009004258 0.050635315 -0.1006804
0.05568139 0.033169646 -0.003428111 0.04961978 0.022244332 0.05896778 -0.025490705 -0.041023597
0.018167565 0.06635324 0.039479032 -0.038563237 0.031008305 -0.062271312 -0.057672337 -0.04593925
-0.028131451 0.02006761 0.05718919 -0.042191118 0.05473376 -0.054000385 -0.102397606 0.0038751476
-0.058856916 0.010502773 0.0072072623 -0.1047097 -0.00054968393 0.048874415 -0.04305285 -0.026123453
0.05876202 -0.10312603 -0.020362753 0.05396967 -0.0015151292 -0.054811627 0.03194811 0.03897528
-0.0887678 -0.06007186 0.021831095 0.029643139 0.034184452 -0.09775298 0.02459913 -0.08249789
0.010173708 -0.015272977 -0.010220227 -0.017396387 0.010520794 -0.035461087 0.02382167 0.00026414383

fc3.bias f4 [64]
00000000: dd30 823c 908a 03bd 873c 46bd 9cb5 e8bc
00000010: b5c3 d3bc d372 07bc df17 4bbd e259 2a3c
00000020: 1b47 c23c aa8b 83bd efce 18bd 4f4d 0abd
00000030: 9dd8 bfbc 82bb f23c 3a38 f2bc a4f3 08bd
00000040: fc39 783d 2e24 6f3d 0bd6 b3bd 1db9 1f3d
00000050: 10be b33b cafa 4abd 4432 f1bc b20e 1dbc
00000060: 5af8 bcbc 5356 d23d a401 0f3c d547 6ebd
00000070: 489d 953d cbd6 99bc f6c3 ff3c 45e7 afbd
00000080: 877e f6bc 6e3a 973c 0bfb 8f3d dda7 2a3d
00000090: 57c1 8dbc e51f e13d 0c24 f03c 872c 153d
000000a0: 61b8 b9bc 45d1 153d 60cc fdbc 54d0 ce3d
000000b0: e246 9dbb 4f3b 4bbd e48c 1abc 430e a13d
000000c0: 7126 6abd 332f c43d 040e 4e3d cadb a1bd
000000d0: 121b 81bd 1353 57bd e53a 59ba 67aa 68bb
000000e0: 795a afbc 286e 85bd d88a 1abd 2933 2e3d
000000f0: 871b 93bd 2b56 8cbd b357 033d 712b 50bd
0.01589244 -0.032114565 -0.048397567 -0.02840691 -0.025850156 -0.008267122 -0.049583312 0.010397406
0.023715546 -0.06423123 -0.037306722 -0.033765133 -0.023418719 0.029630426 -0.029567827 -0.03343548
0.060602173 0.058384113 -0.0878106 0.038994897 0.0054853037 -0.049555577 -0.029442914 -0.009586023
-0.023067642 0.10270371 0.0087284185 -0.058173973 0.0730539 -0.01877918 0.031221371 -0.08589033
-0.03008963 0.018460479 0.070303045 0.041663993 -0.017304106 0.109924115 0.029314063 0.036419418
-0.022670927 0.036576528 -0.030981243 0.10098329 -0.0047997097 -0.049617108 -0.009433005 0.07864048
-0.057165567 0.09579315 0.050306335 -0.079032496 -0.063039914 -0.05256946 -0.0008286669 -0.0035501958
-0.021405445 -0.06515151 -0.037730068 0.04252926 -0.07182985 -0.06852373 0.03206606 -0.05082268

fc4.weight f4 [32, 64]
00000000: dedb bebc 21a8 653d 22a5 fdbd c109 bb3c
00000010: 2887 02be 67f5 2a3d c517 08be 5483 0a3d
00000020: 95ca 723d 6d8e a93d 4f52 ab3c 9809 3b3d
00000030: 7504 573d 1f9a 35bd 859a 4abc af17 b4bd
00000040: 0fe2 dcbd d825 d7bc c644 cabd 6a11 99bd
00000050: 73ce 09bd 8faa 6abd 0b55 c23d e6d7 edbd
00000060: 13a6 863c c96a 0bbe 0ced 983c 1f3e c73c
00000070: 6988 3ebd 05cd 6bbd f708 d33d 6211 b73d
00000080: 0c3d 953d 11ce 05bb 9377 afbd 2685 5d3d
00000090: 26ba 243d 1544 b73d 7fe7 3abd cbcf 533d
000000a0: c234 9f3d 3bdc 993d 1bb6 7fbd 9eef fb3c
000000b0: 19a6 7ebd 9796 97bd 0b08 52bd bdc0 84bc
000000c0: a2af fabd fab8 48bd 408f d2bd 028d d8bd
000000d0: fa06 96bd af66 283d 2523 85bd cc0e e0b7
000000e0: b078 51bd 802e a63d 730a 5b3d 28fe fc3c
000000f0: 02a2 91bd 6f74 14bd 0962 fabd 8afd c33d
00000100: 5cbc 1a3e c342 8fbd 7afc 053e 0b7a 083e
00000110: 5aea b13c 06dd 3dbd 7623 97bd 75b3 153e
00000120: 439e bc3b 972b e23b b50a c5bc a313 c03d
00000130: 6ced 9d3d 4db4 043d 2f8f 063e 1d9a 0b3e
00000140: 9077 083e 555e 96bd 657d f73c 59c3 b8bd
00000150: efe7 83bc 40c3 e5bd 5ac3 d8bd 1c1d f3bc
00000160: dec1 3d3d 40e8 873c 0209 8abd 11c0 963d
00000170: d1c4 15bc ea7e c93d 1a99 a6bd e8c6 bbbd
00000180: af43 99bd 068e 0a3e fca9 e8bd b689 0dbd
00000190: e313 713d a736 f93d d313 ca3d 731f 293d
000001a0: 0d9e 34bd 3058 6c3c 088e a43d 0991 963d
000001b0: 97b7 133e e0bd 2abd 1eb1 4f3d ecd5 443d
000001c0: 3179 72bd 95ba 0d3c 4c6b d83d e185 cbbd
000001d0: 2edc c8bd 5e0a 8f3d ad52 f13d b729 2e3e
000001e0: b0d4 82bd 45c1 eabc 5a02 c5bd eb0e d63d
000001f0: 0a29 353d 4252 0f3d 7613 1dbc 9312 2c3e
00000200: 12ae ac3d fc1a 883d f98b b1bd 740e 39bd
00000210: f5ef bc3c cb9a 873d 8196 e9bd 7171 bd3d
00000220: d458 00be 48d0 a6bd ac35 963d 8667 b9bc
00000230: 9cda b6bd 0f67 7d3c 40ff 383c 5277 393d
00000240: c373 ca3d 2313 f7bd 2121 bb3d e37c adbd
00000250: 44eb 08bd 1a23 ccbd 8a84 d0bd 1bde 5e3c
00000260: 903d 5b3d 332b bdbd aebd 593d f4c7 2b3d
00000270: 3d09 f8bc 2668 403c 4818 773d a5d7 e6bd
00000280: f143 fc3c bc30 12bd aea7 a9bd e93b e1bd
00000290: 36cc ecbd a746 203d 49aa 4abc 3958 9c3a
000002a0: fa6a b23d 642b 823c 0e82 a3bd 85bd babd
000002b0: 32d2 e8bd 5fde 713d 2527 6a3d 2d80 503d
000002c0: 5005 7d3b 86e9 88bd b86f e1ba fa46 a6bd
000002d0: fcd5 cabd 9deb a5bd 8b40 e1bd 8722 143a
000002e0: 1407 a6bc 06d9 833c fd5d 71bd 6a50 973d
000002f0: 8cfa fc3d 4a61 8a3d 68e5 2abd 0045 d6bd
00000300: 7d59 12bd 01d4 8b3d 0d68 d43d 600a c63d
00000310: d267 1d3e 38ac 123e 1331 df3d f580 833d
00000320: d707 0c3d 2a09 be3d d614 17bd 03eb e83d
00000330: 772d fb3c 6620 e93d 7f7b f23d 6347 33bd
00000340: 8f54 21bc 3dd6 76bd 92ce fc3b 99da c93d
00000350: b50f 273c fb47 a83c fba7 b6bd 7dee 403d
00000360: bbf5 27bd fe5f 073e 0b18 103c 5be0 d93b
00000370: f018 fc3c 0c36 793d 5602 b83d 8266 2f3d
00000380: af8d 7ebd 5825 9e3d f51d 9dbc f6ee 80bd
00000390: a0c0 b4bc da42 3fbc 85c6 b03d 261b 323a
000003a0: 9e31 0e3d 8898 f139 cc6b e23d 31af b3bd
000003b0: e951 21bd a5ae 323c 9e23 17bd c0d0 31bd
000003c0: 0c4c b23d fc96 8bbd 1732 973d 1dbd a73d
000003d0: 03db 38bc 1718 aebd 30f5 e93d 7d1c e33d
000003e0: f072 6f3d f2ca 483c 98a6 32bc 8cca 01bd
000003f0: 7606 923d 98fa 063d 9aff cabc 1004 ab3d
-0.0232982 0.056068543 -0.12385012 0.0228318 -0.1274687 0.04173794 -0.13290317 0.03381665
0.05927523 0.08279119 0.020913271 0.045663446 0.052494485 -0.044336434 -0.012365942 -0.0879358
-0.10785305 -0.026263162 -0.09876399 -0.074740246 -0.03364415 -0.057291564 0.09488877 -0.11613445
0.016436612 -0.13614954 0.01866772 0.024321614 -0.04651681 -0.05756857 0.10304444 0.089388624
0.072870344 -0.0020417015 -0.08567729 0.05408206 0.040216587 0.089485325 -0.045630928 0.05171184
0.07773735 0.07512709 -0.06242953 0.030753907 -0.06217012 -0.074017696 -0.0512772 -0.016205186
-0.122405306 -0.049004532 -0.10281229 -0.1057377 -0.073255494 0.04111355 -0.06500844 -2.6709771e-05
-0.051140487 0.08114338 0.053476762 0.03088291 -0.07110979 -0.036243852 -0.1222573 0.09569843
0.15110916 -0.06995156 0.13084593 0.13327806 0.021718193 -0.046353363 -0.073798105 0.14619239
0.005756171 0.006902169 -0.024052957 0.093787454 0.077113 0.03239851 0.13140558 0.13633008
0.1332686 -0.07342211 0.03021116 -0.090216346 -0.016101805 -0.112188816 -0.10584135 -0.029676966
0.046327464 0.016590238 -0.06739999 0.073608525 -0.009141163 0.0983866 -0.081346706 -0.09168798
-0.07483613 0.1353074 -0.11360547 -0.03455516 0.058856856 0.12168627 0.098670624 0.041289758
-0.04409604 0.014425322 0.08034903 0.07351882 0.14425503 -0.041684985 0.05070602 0.048055574
-0.05919761 0.008650442 0.1056734 -0.09937645 -0.09807621 0.06984399 0.11783347 0.170081
-0.06388223 -0.028656611 -0.09619589 0.10452064 0.04422859 0.034990557 -0.009587159 0.1680396
0.08431639 0.06645772 -0.08669276 -0.0451798 0.02306364 0.06621321 -0.114056595 0.09250153
-0.12533885 -0.08145195 0.07334456 -0.022632372 -0.08928415 0.015466466 0.011291325 0.04527981
0.09885361 -0.12064197 0.09137178 -0.08471086 -0.03342749 -0.099676326 -0.1018153 0.013602759
0.053525507 -0.09236755 0.05315941 0.041938737 -0.030277843 0.011743581 0.06032589 -0.112716
0.030794116 -0.035691008 -0.082839355 -0.10997755 -0.11562388 0.03912988 -0.012369701 0.0011928148
0.087118104 0.01588983 -0.0798379 -0.09118179 -0.113682166 0.05904996 0.057166237 0.050903488
0.0038607903 -0.06685166 -0.0017199432 -0.081190065 -0.099040955 -0.0810158 -0.10998639 0.0005650897
-0.020267047 0.016094696 -0.058927525 0.07388385 0.123524755 0.06756838 -0.041722685 -0.104623795
-0.035729874 0.06827546 0.103714086 0.096699476 0.15371636 0.14323509 0.10898032 0.06421081
0.034187164 0.09279092 -0.036885105 0.1137295 0.030661328 0.11383133 0.11839961 -0.04376925
-0.0098468205 -0.060262907 0.007715055 0.09856147 0.010196616 0.020542135 -0.089187585 0.04710244
-0.04100583 0.13220212 0.008794795 0.0066490597 0.03077361 0.06084256 0.089848205 0.04282237
-0.06214684 0.077219665 -0.019179324 -0.06295578 -0.022064507 -0.0116736535 0.086316146 0.00067942066
0.034715287 0.00046080747 0.11055717 -0.087736495 -0.039384756 0.010905896 -0.0368992 -0.04341197
0.08705911 -0.06815907 0.07382601 0.08190367 -0.011282685 -0.085006885 0.11423719 0.11089418
0.058459222 0.012255417 -0.010903977 -0.031687304 0.071301386 0.03295383 -0.024780083 0.08350384

fc4.bias f4 [32]
00000000: d3a4 c33d 4ae5 9a3b 6338 bcbd 40fc 6b3d
00000010: edab 093d ae53 54bd 8da5 d93d dc15 3abc
00000020: 33e1 183c bb8c f3bd 1a2c 99bd 2d6c f93d
00000030: 980b adbd fb0e 323d 648b 7d3d 567e c4bd
00000040: 32a1 de3d 65aa 153e c062 a53d 3d6b dd3d
00000050: 942d 683d 2925 7abd b601 bcbd 18d2 533d
00000060: f72d 033d 362d 0f3e 87ec dd3d f62c bc3d
00000070: 14a6 ffbd f9c3 da3c d008 ee3c 57c0 a73c
0.09552922 0.0047270404 -0.091904424 0.05761361 0.033611227 -0.051837616 0.106272794 -0.011357751
0.009331035 -0.118920766 -0.07479115 0.12178836 -0.08449477 0.043471318 0.06190051 -0.09594409
0.10870589 0.14615782 0.08075476 0.1081147 0.05668409 -0.061070595 -0.09180014 0.051714033
0.032026257 0.1398209 0.1083613 0.09188263 -0.12482849 0.026704775 0.029056937 0.020477457

fc5.weight f4 [5, 32]
00000000: bd57 c83d 8709 77bd db96 8a3d 237a 33bc
00000010: 8176 0ebe b8da fbbc 50fa d53d 1f8c e6bb
00000020: 4c36 b2bd 0abc c5bd 6cf8 c8bc 1355 04be
00000030: b8a3 4bbb e27f 6cbb 7466 4cbe fe3a 32be
00000040: b771 27be f64b 2c3d f491 18be a3ca 10bd
00000050: 92d1 29bd 880b 35be fe71 3dbe 399d d4bd
00000060: 8ba3 e33d ee56 173e 93bf 0abe 0269 abbd
00000070: 6daa 8dbd 1998 b73d e4d8 e13d e270 dc3d
00000080: 9abc d63d 8592 993d 0456 c33d af3e b3bd
00000090: 41d0 d5bc fdea 03be 7541 17be bc0b a43d
000000a0: f619 30be 0e18 3ebd c71e aa3d 89e4 3dbe
000000b0: 47bd 273c 0087 07be 1feb 0dbe 17a1 dc3d
000000c0: d14c 2fbd 5636 0cbd c643 00be 098c 213d
000000d0: 5cc7 a93d d774 e2bd 44bd 223e d646 3bbe
000000e0: 7234 083e da76 28be d9e2 d5bd c149 05be
000000f0: 30a5 793c aa02 f53d 7449 453d 7fe5 c23c
00000100: ad9e 34be dfda 0abe a2f1 41be 99b1 d93d
00000110: d1f9 b23d 6b5a 43be 8d6b 513d 4c9a 5f3d
00000120: 6c52 c63d 637d 743d 5304 0abe bb2b fabd
00000130: 3e18 863d fa73 703d e5d5 f33d a9d5 c1bd
00000140: ea97 ef3d 8319 e7bd f027 d8bd 5f4e 053e
00000150: 5d54 56bd 9c02 f53d 30a4 793d 1b59 55be
00000160: 1bad 193e dde3 e53d 0e4f cebd 3be0 0d3c
00000170: 588a 323d b15d fb3d f26b 1abe f79b 89bd
00000180: 22c2 103e b4c4 f63c a633 183e 7541 133d
00000190: 3133 24be aab1 ee3c 52fd 8a3d 4872 d83d
000001a0: 1103 7dbd daeb 173e c41a a3bd 0a89 8a3d
000001b0: 551b 20be b6b4 1abe 5bdf 213d 6411 b4bc
000001c0: 3158 613d 5138 92bd a6e1 1e3e dbaa cdbb
000001d0: 5233 54bd f3d5 953d 0f39 fb3d d5bb 4cbe
000001e0: 5005 043e d481 9b3d 9667 b13d e9e5 9dbd
000001f0: a06a 6e3d 7621 afbd 3e8b ef3d 893a 3c3d
00000200: 35d7 a5bd 0b06 3a3e 0366 94bd ac9a 0a3e
00000210: 3ea3 3bbd 8067 babd c26d debd d83b 333e
00000220: 5c76 033e b46e 10be e63c 003e a3b0 0dbd
00000230: e7d2 2fbd 1d5a 26be da1b 343e 9420 443d
00000240: d3ca 0b3e 13c8 f83d cb6a afbc 19e3 023e
00000250: 2f26 ab3d 8948 233e 3219 883d ad16 2abd
00000260: a104 20be 6ba6 ce3d 107c 903d 6beb 373e
00000270: b1b2 eebc 0b5c 50bd 3157 d03d 1248 25be
0.0978236 -0.06031182 0.06767055 -0.010954413 -0.13912393 -0.030743942 0.10448134 -0.0070357467
-0.087017626 -0.09655006 -0.02453252 -0.12923078 -0.0031072926 -0.0036086966 -0.19960958 -0.17405316
-0.16351973 0.04206463 -0.14899427 -0.0353495 -0.041459627 -0.1768018 -0.18500516 -0.1038155
0.11115178 0.14779255 -0.13549642 -0.08369638 -0.06917272 0.08964557 0.11027697 0.10763718
0.10485192 0.074986495 0.095378906 -0.0875219 -0.02610028 -0.1288261 -0.14771064 0.08010051
-0.17197403 -0.04640966 0.083066516 -0.1854421 0.010237998 -0.13235092 -0.13859223 0.10772913
-0.042797867 -0.034231506 -0.12525854 0.03944019 0.08289978 -0.11057442 0.15892512 -0.1828874
0.13301256 -0.16451588 -0.104436584 -0.13016416 0.015237138 0.11963399 0.048165753 0.023791073
-0.17638655 -0.13560055 -0.18939832 0.10629577 0.08739055 -0.1907746 0.05112796 0.05459051
0.096836895 0.05968989 -0.13478212 -0.12215372 0.065475926 0.058704354 0.119060315 -0.094645806
0.11698897 -0.11284163 -0.105544925 0.13018177 -0.05232655 0.11963388 0.060947597 -0.20834772
0.15007441 0.11225102 -0.10073672 0.008659418 0.043588966 0.122737296 -0.1508024 -0.06719201
0.14136556 0.030123092 0.14863452 0.035951097 -0.16035153 0.029137451 0.06786598 0.105686724
-0.061770502 0.14836064 -0.079640895 0.067644194 -0.15635426 -0.15107998 0.03951965 -0.021980949
0.055015747 -0.07139648 0.15515766 -0.006276471 -0.051806755 0.07316198 0.122667424 -0.19993527
0.12892652 0.07593122 0.086623356 -0.077098675 0.058207154 -0.08551304 0.1169648 0.04595426
-0.08097688 0.18166368 -0.0724602 0.13535565 -0.045809977 -0.09101772 -0.108607784 0.17503297
0.1283812 -0.1410473 0.12523231 -0.034592282 -0.04292574 -0.16245313 0.1758875 0.04788263
0.1365159 0.12147536 -0.021413228 0.12781943 0.08356892 0.15945639 0.066454306 -0.04152553
-0.15626766 0.100903355 0.07054913 0.17960899 -0.029137941 -0.05086903 0.101728804 -0.16140774

fc5.bias f4 [5]
00000000: 9a80 e5bd e644 aa3d 7d25 383c 750a e2bc
00000010: b0ad 4cbd
-0.112061694 0.083139226 0.011239407 -0.027592877 -0.04997033
